net_multi.pt (torch_old, 26654 bytes, 6 tensors)

mu.0.weight f4 [64, 30]
0	0x3e8a3c37	0.26999065
1	0xbe97011a	-0.29493028
2	0x3e2cf79c	0.1689133
3	0xbe0dd4bc	-0.13850683
4	0xbe5ab778	-0.2135905
5	0xbe739397	-0.2378677
6	0xbde5811f	-0.112062685
7	0xbddf522f	-0.10904347
8	0x3e294d53	0.16533403
9	0xbe55eb74	-0.208906
10	0x3d9f34a9	0.07773716
11	0x3e43cd22	0.1912122
12	0x3c3c9ed4	0.011512477
13	0x3b9b5d2a	0.0047413306
14	0x3d1a0d45	0.03761031
15	0xbc731c80	-0.014838338
16	0xbd084400	-0.033267975
17	0xbe82890b	-0.2549518
18	0x3dced7dc	0.10099766
19	0xbe1a9e51	-0.15099455
20	0x3e0fa1da	0.14026585
21	0xbe30aa63	-0.17252497
22	0x3db29114	0.08719078
23	0xbd3b869e	-0.045782678
24	0xbe4311c7	-0.1904975
25	0x3e3a50b8	0.18194854
26	0xbe9d89d0	-0.30769205
27	0xbde3d9ec	-0.1112555
28	0x3d998793	0.07496562
29	0xbe23382d	-0.15939398
30	0x3e9db339	0.308008
31	0xbb6508d8	-0.0034947898
32	0xbde578c4	-0.11204675
33	0x3e2c170c	0.16805667
34	0x3e081a2d	0.13291235
35	0xbe280c93	-0.16411047
36	0xbe60740a	-0.21919265
37	0xbecc65c6	-0.39921397
38	0x3dea9682	0.11454488
39	0x3d55eac8	0.052225858
40	0x3e28f7b9	0.16500749
41	0x3e3ddb5c	0.1854071
42	0xbe4f28c0	-0.20230389
43	0xbe5c7c16	-0.2153171
44	0xbe70cbfb	-0.23515312
45	0xbe5c678f	-0.2152388
46	0xbd9e783c	-0.07737777
47	0xbd6a0f0e	-0.057143264
48	0x3cd414a9	0.025888758
49	0xbe30281d	-0.17202802
50	0x3ee285eb	0.44242796
51	0x3d87c1ad	0.066287376
52	0xbe290275	-0.16504844
53	0x3e5b1cb4	0.21397668
54	0x3d1c5dc4	0.03817536
55	0xbe8633d7	-0.26211426
56	0x3e34b218	0.17646062
57	0x3dced0e6	0.10098438
58	0xbe00e795	-0.12588342
59	0x3d6c4b53	0.057689022
60	0xbb8df33e	-0.0043319752
61	0xbe88bd94	-0.26707137
62	0x3ece8179	0.40333155
63	0x3e0a0509	0.13478483
64	0x3cf25e53	0.029585993
65	0x3d3d913a	0.046281077
66	0x3e63dd1f	0.2225232
67	0x3c859ace	0.016309168
68	0xbcd8b083	-0.026451355
69	0x3d1c7c1a	0.03820429
70	0x3d020dd3	0.031751465
71	0xbe69da16	-0.228371
72	0x3db7218b	0.08941945
73	0xbed0b28f	-0.4076123
74	0x3f0a97a8	0.5413766
75	0xbe297955	-0.16550191
76	0xbe4cc86a	-0.19998327
77	0x3e1626e8	0.14663279
78	0x3d8b67d5	0.06806914
79	0xbe2f0902	-0.1709328
80	0xbea6aa56	-0.3255183
81	0x3dd58ed2	0.104276314
82	0x3e0181dd	0.12647195
83	0x3d0ee7ea	0.03488914
84	0x3dde6064	0.10858229
85	0x3dcf48f2	0.10121335
86	0xbdba7fd2	-0.09106411
87	0x3d038282	0.032106884
88	0x3e8f5a32	0.279985
89	0x3d8db732	0.06919707
90	0x3d032e9a	0.032026865
91	0x3d254521	0.04034913
92	0x3e0a2b46	0.1349307
93	0x3e2f04b8	0.17091644
94	0x3d8578cb	0.0651718
95	0xbe05c2ac	-0.13062543
96	0x3e8ed395	0.278958
97	0xbe440a11	-0.19144465
98	0xbe7b08d9	-0.24515094
99	0x3e649db5	0.22325785
100	0xbe932f99	-0.28747252
101	0x3d33fce7	0.04394236
102	0x3e8038ec	0.25043428
103	0xbb78ce10	-0.003796462
104	0xbda9eb20	-0.082968
105	0x3e4e5d89	0.20152868
106	0x3e6463e7	0.22303735
107	0x3e10e067	0.14148103
108	0xbdce57aa	-0.10075314
109	0x3d10a40e	0.035312705
110	0xbea752ab	-0.32680258
111	0xbe3920c1	-0.18078901
112	0xbe37c7c3	-0.17947297
113	0x3ebbf71f	0.36711976
114	0xbe2c0091	-0.16797091
115	0x3dfff576	0.1249799
116	0x3dfd8a3a	0.1237988
117	0x3da2116f	0.079134814
118	0x3e357a22	0.17722371
119	0x3e5507db	0.20803778
120	0xbe12d679	-0.14339627
121	0xbe56866a	-0.20949712
122	0x3e9c9d28	0.3058865
123	0x3d798976	0.06092211
124	0x3e42215a	0.18958035
125	0x3df8ad12	0.121423855
126	0x3df0ae2f	0.11751973
127	0xbe9a6721	-0.30156806
128	0xbd795c96	-0.060879312
129	0x3d3d4ff7	0.04621884
130	0x3e85eac0	0.26155663
131	0x3cf04fc2	0.029334906
132	0x3e45568d	0.19271298
133	0x3dd5f780	0.104475975
134	0x3daca5d1	0.084300645
135	0x3c428c28	0.011874236
136	0xbe6e4c86	-0.23271379
137	0x3f0cd038	0.55005217
138	0x3e234f77	0.15948282
139	0xbe2cc683	-0.16872601
140	0xbe186904	-0.1488381
141	0xbccaaa9d	-0.024739558
142	0x3d131e26	0.035917424
143	0xbca66cca	-0.020315547
144	0x3e59f1f1	0.212837
145	0xbe3b34bb	-0.18281834
146	0xbd1a73ca	-0.03770808
147	0x3e8b6ff0	0.2723384
148	0xbe4f81bb	-0.20264332
149	0x3e9970bb	0.2996882
150	0xbe1d762a	-0.15377107
151	0xbd7384fd	-0.059453
152	0x3eb1c398	0.3471954
153	0x3c4dd14a	0.012562105
154	0x3eb4cee4	0.35314095
155	0x3da6cf54	0.081450135
156	0x3d81fe9e	0.063473925
157	0xbe55501c	-0.2083134
158	0xbd16775d	-0.036734927
159	0xbdaf738c	-0.08566961
160	0x3dc4fab3	0.096181296
161	0x3e4ea18c	0.20178813
162	0xbda60071	-0.08105553
163	0x3db64a51	0.089008935
164	0xbd5ff845	-0.054680128
165	0x3dadbc39	0.08483166
166	0xbd4d153e	-0.050069086
167	0x3dc2eb2d	0.095175125
168	0x3d59a4ec	0.053135797
169	0x3e7614f9	0.24031438
170	0x3e68bd51	0.22728468
171	0x3ca1abac	0.01973518
172	0xbe16b478	-0.14717281
173	0xbcd53810	-0.02602771
174	0x3cf76dda	0.030203748
175	0xbc9902fc	-0.01867818
176	0x3e1962c1	0.14979078
177	0xbe1d83ce	-0.15382311
178	0x3e987292	0.2977491
179	0xbba3f114	-0.005003104
180	0xbed762c9	-0.42067555
181	0xbd1bf81d	-0.038078416
182	0xbdd3dd08	-0.10344893
183	0x3e7fea25	0.24991663
184	0xbe61789f	-0.2201867
185	0x3e9189b3	0.2842537
186	0x3e01d938	0.12680519
187	0xbdd00d90	-0.10158837
188	0xbd860524	-0.06543949
189	0x3dba43da	0.09094973
190	0x3dac20d1	0.08404697
191	0x3d7905d0	0.06079656
192	0x3e66c5a1	0.22536327
193	0xbe1a0b03	-0.15043263
194	0x3c3dfe92	0.011596339
195	0xbd88b1f1	-0.06674565
196	0x3dbe663d	0.09296844
197	0x3c13cf2c	0.009021562
198	0xbd7ba1de	-0.061433665
199	0x3e7ff4bc	0.24995703
200	0x3eaf4cf3	0.34238395
201	0xbe183d36	-0.148671
202	0xbec1f630	-0.3788314
203	0xbc2394c6	-0.009984201
204	0xbdf7d25c	-0.1210067
205	0xbe4cbd3c	-0.19994062
206	0x3d84ef03	0.064909
207	0x3e980c8e	0.29697078
208	0x3e4012ff	0.18757246
209	0xbe3d425f	-0.1848235
210	0x3e83545f	0.25650308
211	0xbd041e06	-0.032255195
212	0x3d81cc79	0.06337828
213	0x3df820b8	0.121156156
214	0xbd3da9ee	-0.046304636
215	0x3ea862e0	0.32887936
216	0x3c3f4b8a	0.011675725
217	0x3c5b28e3	0.013376447
218	0xbc601039	-0.013675743
219	0xbe0bc102	-0.13647845
220	0x3e23c315	0.15992387
221	0xbe0424e6	-0.129047
222	0xbe1dfc5f	-0.15428303
223	0x3e44c305	0.19215019
224	0xbea840af	-0.3286185
225	0x3df5f119	0.12008876
226	0x3e0757d7	0.13217102
227	0x3cb7c3b0	0.022432178
228	0xbdf1818d	-0.11792288
229	0xbd12aeb5	-0.035811145
230	0xbe8cdce8	-0.27512288
231	0x3dd86f52	0.10568108
232	0x3d6e42b8	0.058169097
233	0x3d9e3eb5	0.07726804
234	0xbd5ef307	-0.054430988
235	0x3d8e8402	0.06958772
236	0xbe24d12b	-0.16095416
237	0xbd8d8760	-0.06910586
238	0x3eadb2e4	0.33925545
239	0x3cf22aec	0.029561482
240	0xbddf9385	-0.10916809
241	0xbe388469	-0.1801926
242	0x3daf80bc	0.08569476
243	0xbe94bea3	-0.29051694
244	0xbec41202	-0.3829499
245	0x3df0df82	0.11761381
246	0x3e542f0e	0.20721075
247	0xbdd6f5b9	-0.104960866
248	0xbe000a7c	-0.12504
249	0xbdaf6936	-0.08564989
250	0x3dc98d78	0.09841436
251	0x3ebda1e4	0.37037575
252	0x3dd4b531	0.10386122
253	0x3d234359	0.03985915
254	0x3e8971ba	0.2684458
255	0xbe5834aa	-0.2111384

mu.0.bias f4 [64]
0	0xbea40edf	-0.32042596
1	0x3e063a75	0.13108237
2	0xbd30d2da	-0.043169834
3	0xbd20b374	-0.03923364
4	0x3f01b799	0.5067077
5	0xbe37d2af	-0.17951463
6	0xbe8f691d	-0.28009883
7	0xbc44c329	-0.01200942
8	0x3e929cbc	0.28635204
9	0x3d70bbef	0.058772977
10	0x3d51f7b2	0.05126161
11	0xbddf2382	-0.108954445
12	0x3dbeccda	0.09316416
13	0x3d159da4	0.03652729
14	0xbdf3337c	-0.11875054
15	0x3da6b46c	0.081398815
16	0x3e3ac1eb	0.18238036
17	0x3e423708	0.18966305
18	0xbdd570a3	-0.104218744
19	0x3e1bad8a	0.15202919
20	0xbee0773b	-0.43840966
21	0xbe9adb44	-0.3024541
22	0xbe41c21f	-0.18921708
23	0x3e45eadf	0.19327877
24	0xbda7c1a1	-0.08191229
25	0x3e4db055	0.20086797
26	0xbe813db1	-0.2524238
27	0x3eceed44	0.40415394
28	0x3dbebc90	0.09313309
29	0x3e16d5f9	0.14730062
30	0xbe1406ab	-0.14455669
31	0x3ea73f19	0.32665327
32	0xb9c710a0	-0.00037968624
33	0xbe317fba	-0.1733388
34	0x3e14fb64	0.14549023
35	0xbc0ca533	-0.008584308
36	0x3e23d675	0.15999778
37	0x3d468f2e	0.04847639
38	0xbe961cde	-0.293189
39	0xbe3482b9	-0.17627992
40	0x3c19d22e	0.00938849
41	0x3e5bc3eb	0.21461456
42	0x3dc541fa	0.09631725
43	0xbe30248c	-0.17201442
44	0xbea7ae3d	-0.3275012
45	0xbd8c62a1	-0.068547495
46	0xbdb4bf7a	-0.08825584
47	0xbd1b318c	-0.03788905
48	0x3de1fc69	0.110344715
49	0xbc12dca0	-0.008963734
50	0xbbcf0eac	-0.0063188877
51	0xbed98666	-0.4248535
52	0x3e9b5838	0.30340743
53	0x3e25ebfe	0.16203305
54	0xbd510c62	-0.0510372
55	0xbda8012f	-0.08203351
56	0x3d867b53	0.06566491
57	0xbdcd828b	-0.10034665
58	0x3e5e44e3	0.21705966
59	0x3d026634	0.03183575
60	0xbdb55bef	-0.088554256
61	0xbdfabf5e	-0.12243532
62	0x3dcd820c	0.1003457
63	0xbdc116d9	-0.09428186

mu.2.weight f4 [64, 64]
0	0xbb8c5262	-0.0042822817
1	0xbdd16e80	-0.10226154
2	0xbc82b9e6	-0.015957784
3	0xbdbefff7	-0.09326165
4	0x3eae4264	0.34035027
5	0x3dfa7688	0.12229639
6	0x3dc02d7e	0.09383677
7	0xbe665210	-0.22492242
8	0x3e51c09c	0.20483631
9	0xbddc424b	-0.10754832
10	0x3da25058	0.079254806
11	0x3e3cf712	0.18453625
12	0x3cb8e5ca	0.02257051
13	0x3ecfebe3	0.40609655
14	0xbe859e69	-0.2609742
15	0x3d46831d	0.048464883
16	0x3ebaaaeb	0.36458525
17	0x3d471250	0.04860145
18	0x3d533263	0.051561724
19	0x3d2cbbb7	0.042171206
20	0xbe24fcc4	-0.16112047
21	0xbd37ba97	-0.04485568
22	0x3d24ccea	0.040234484
23	0xbeddb295	-0.4330031
24	0x3d13ea7d	0.036112297
25	0xbca17c2e	-0.019712534
26	0xbe4f5170	-0.2024591
27	0x3cb9d24e	0.022683289
28	0xbe264d7b	-0.16240494
29	0xbd084ac6	-0.033274435
30	0x3e759e10	0.23986077
31	0xbd306d08	-0.04307273
32	0x3da3239e	0.07965778
33	0x3d126b70	0.03574699
34	0x3b205420	0.0024464205
35	0xbdbeb311	-0.09311498
36	0x3d28022c	0.041017696
37	0xbe981d84	-0.2971002
38	0xbd1fcc9c	-0.03901349
39	0xbe9710c8	-0.2950499
40	0xbd962932	-0.07332076
41	0x3db14668	0.08656007
42	0x3d171f51	0.0368951
43	0x3e648d84	0.22319609
44	0xbd10bbbf	-0.0353353
45	0x3e2cf726	0.16891155
46	0xbdac49c9	-0.08412511
47	0x3e329d6b	0.17442863
48	0xbd08052d	-0.03320806
49	0xbded75a5	-0.115947045
50	0xbc8d9a52	-0.0172855
51	0x3df59bf6	0.11992638
52	0x3e32fe9f	0.17479943
53	0x3eafbc0f	0.34323165
54	0xbe44f6f3	-0.19234829
55	0x3bfc2576	0.0076948954
56	0xbd9967f7	-0.07490533
57	0xbd25d816	-0.04048928
58	0xbe14d097	-0.14532696
59	0xbe2f9e98	-0.17150342
60	0xbd7f9c4e	-0.062404923
61	0x3e5e2efe	0.21697614
62	0xbeb06c7d	-0.3445777
63	0x3d3cd5a3	0.046102177
64	0xbe081c26	-0.13291988
65	0x3e2a7ad3	0.16648416
66	0x3dc29ce3	0.0950258
67	0xbd41a0fc	-0.047272667
68	0x3eb5cc3b	0.35507378
69	0x3e26eb18	0.16300619
70	0xbc762735	-0.015023996
71	0x3d1376e8	0.03600207
72	0xbd1653e5	-0.0367011
73	0x3ea6698d	0.32502404
74	0xbe1d0864	-0.15335232
75	0x3e3ce3c9	0.18446268
76	0xbc7cd69e	-0.015432028
77	0x3e0fbaed	0.1403615
78	0x3e7333ef	0.2375028
79	0x3e7ceb79	0.246992
80	0x3de0bbac	0.109732956
81	0xbdadac18	-0.0848009
82	0xbd9177ba	-0.07102914
83	0xbe14e2de	-0.14539668
84	0x3e23afd7	0.15985046
85	0xbe5bbd6d	-0.21458979
86	0x3e7cc64a	0.24685016
87	0x3c84a134	0.016190149
88	0xbd978695	-0.07398716
89	0x3d99c6dd	0.07508633
90	0x3c95125c	0.018197231
91	0xbe067f49	-0.13134493
92	0xbe302d1e	-0.17204711
93	0x3f10be0b	0.5653998
94	0x3ed94948	0.42438722
95	0xbdb5eb3b	-0.08882757
96	0x3e3747c1	0.17898466
97	0xba0ee730	-0.000545132
98	0xbe56fb84	-0.20994383
99	0xbde9f899	-0.11424369
100	0x3ea60616	0.32426518
101	0xbe5b89fe	-0.21439359
102	0xbc44573a	-0.011983687
103	0x3e1544b8	0.14576995
104	0x3d872daa	0.066005066
105	0x3d512d3c	0.05106853
106	0xbd433df8	-0.04766652
107	0x3d995d15	0.07488457
108	0x3d9fd9a9	0.07805187
109	0x3dd138d7	0.102159195
110	0xbd1cdee0	-0.038298488
111	0xbe7bfd23	-0.24608283
112	0x3d19e7c6	0.037574552
113	0x3dab6a23	0.08369853
114	0x3e892369	0.26784828
115	0x3cc65bf6	0.024213772
116	0xbe7b90a7	-0.24566899
117	0xbd8de4f7	-0.06928437
118	0x3e4c866b	0.19973151
119	0x3db574f7	0.088602
120	0x3d954f43	0.072905086
121	0xbe6246f9	-0.22097386
122	0xbe89e74f	-0.26934287
123	0xbd68705d	-0.056747783
124	0xbe42b526	-0.19014415
125	0x3ec02bbe	0.37533373
126	0xbe22109b	-0.15826647
127	0x3eac6f76	0.33678788
128	0x3e83b59a	0.25724488
129	0x3e58b4e4	0.21162754
130	0x3d708553	0.058720898
131	0x3e27126a	0.16315618
132	0x3da4cbc2	0.08046676
133	0xbdba4774	-0.0909566
134	0x3e0272d2	0.12739113
135	0x3c2c957e	0.010533689
136	0x3d4a553a	0.049397685
137	0x3dcfe7b3	0.10151615
138	0xbe836745	-0.25664726
139	0x3dc94534	0.098276526
140	0xbe180997	-0.14847408
141	0x3dfbaad8	0.12288445
142	0x3d5b9b15	0.053614695
143	0xbcaefa74	-0.02135966
144	0x3df4f8e2	0.11961533
145	0xbd647d03	-0.055783283
146	0xbdad83ef	-0.0847243
147	0x3d1b7670	0.037954748
148	0xbdd954d2	-0.10611881
149	0x3d4d73cd	0.050159264
150	0x3eb63e11	0.35594228
151	0x3d94e107	0.07269483
152	0x3e5c377c	0.2150554
153	0x3d9e313a	0.07724233
154	0x3e0eca9d	0.13944478
155	0xbd938be4	-0.072044164
156	0x3e049773	0.12948398
157	0xbe37819d	-0.17920537
158	0x3d9a965c	0.0754821
159	0x3d6725bf	0.05643248
160	0xbe4a82f8	-0.19776523
161	0x3e801407	0.2501528
162	0x3dd69f20	0.104795694
163	0x3ce9180e	0.028453853
164	0xbcfc3e7c	-0.030791514
165	0x3d505224	0.050859585
166	0x3d44eb98	0.048076242
167	0xbd02574d	-0.031821538
168	0xbe1a1d63	-0.15050273
169	0x3e933210	0.28749132
170	0xbb09c1ce	-0.0021020058
171	0xbc75528e	-0.014973296
172	0x3e7f3510	0.24922585
173	0xbd47aa0d	-0.048746157
174	0x3e3024d0	0.17201543
175	0xbe8f003c	-0.27929866
176	0xbdf35c0f	-0.11882793
177	0x3e0f87d1	0.14016654
178	0x3e1ac898	0.15115583
179	0x3e3a191d	0.18173642
180	0xbbf699d8	-0.007525664
181	0xbce83e78	-0.0283501
182	0x3e880f9f	0.26574418
183	0xbba7788a	-0.005110805
184	0x3d89a8d1	0.06721652
185	0xbc539493	-0.012913841
186	0xbdacb0eb	-0.08432182
187	0xbd4b90ae	-0.049698524
188	0xbe109430	-0.14119029
189	0x3da4b400	0.08042145
190	0x3e0a8c5a	0.13530102
191	0x3dc92242	0.09820987
192	0xbdde3d33	-0.108515166
193	0x3dd0e133	0.10199203
194	0x3d0f8373	0.03503747
195	0xbe2d0956	-0.16898093
196	0xbc9295db	-0.017893722
197	0x3d307042	0.043075807
198	0x3eb2e387	0.34939215
199	0xbeb3bd8f	-0.3510556
200	0xbdddd7dc	-0.108321875
201	0x3d57ba8f	0.05266815
202	0x3d398163	0.04528941
203	0xbc5ccef0	-0.013477072
204	0x3e4d868b	0.20070855
205	0x3e27d039	0.16388024
206	0x3e09f901	0.13473894
207	0x3cbbb68f	0.0229142
208	0x3e2e0cd5	0.16997083
209	0x3d171c30	0.036892116
210	0x3e7e0a2b	0.24808566
211	0xbeb942b3	-0.361837
212	0x3e1c950a	0.15291229
213	0x3c1fdfb3	0.009757924
214	0xbcc01e81	-0.023452045
215	0x3e8b37f1	0.27191117
216	0xbd15aa51	-0.03653938
217	0xb96f0780	-0.0002279561
218	0xbd96698a	-0.07344349
219	0x3cb55db3	0.022139406
220	0xbd89b394	-0.06723705
221	0x3ba1b9ce	0.0049354797
222	0xbdf4412a	-0.119264916
223	0xbcdc5904	-0.026897915
224	0xbda34039	-0.07971234
225	0xbe9aea04	-0.30256665
226	0x3ce7b48e	0.028284337
227	0x3e5af859	0.213838
228	0xbe4d741b	-0.20063822
229	0x3e2656c8	0.16244042
230	0x3d93bcdd	0.07213757
231	0xbda53a3a	-0.080677465
232	0x3d85cc2a	0.06533082
233	0xbec36aff	-0.3816757
234	0xbd4db287	-0.050219085
235	0xbd9a1a28	-0.0752452
236	0x3d8394b3	0.064248465
237	0x3c3ca090	0.01151289
238	0xbe20b08a	-0.15692344
239	0x3dbd7267	0.09250336
240	0x3bc9c1aa	0.0061571198
241	0xbe020fb6	-0.12701306
242	0xbde2cf3c	-0.11074683
243	0x3d7b7954	0.061395004
244	0xbe40482a	-0.18777528
245	0xbbed5a9a	-0.0072434666
246	0xbcd3f8f3	-0.025875544
247	0x3c0a0dfe	0.008426188
248	0xbdacbe4e	-0.08434735
249	0x3e0b3d7a	0.1359767
250	0x3e2138f9	0.1574439
251	0xbce860dc	-0.028366499
252	0x3ec2d919	0.38056257
253	0xbe676662	-0.2259765
254	0xbe788b25	-0.2427183
255	0xbe40522a	-0.18781343

mu.2.bias f4 [64]
0	0xbe8c7f89	-0.27441052
1	0xbe160656	-0.14650854
2	0xbc95fd7a	-0.018309344
3	0x3de6e02c	0.11273226
4	0xbc706430	-0.014672324
5	0xbd81a1d2	-0.06329693
6	0x3dfc0e0a	0.12307365
7	0xbd44e05c	-0.04806553
8	0x3da52435	0.080635466
9	0x3e5176ad	0.20455427
10	0x3d260354	0.040530518
11	0x3de35060	0.11099315
12	0x3e85cb53	0.26131687
13	0xbe14f81f	-0.14547776
14	0xbd6da1da	-0.05801568
15	0x3ca190a2	0.019722287
16	0xbead1920	-0.3380823
17	0xbdc2d8e0	-0.09514022
18	0xbd3f5fbe	-0.046722166
19	0x3e6be29e	0.23035666
20	0xbe4f9ee8	-0.20275462
21	0xbe8ec0a3	-0.27881345
22	0x3df552aa	0.119786575
23	0xbcd7152e	-0.026255216
24	0xbc9f125b	-0.019417932
25	0x3d90dfa7	0.07073908
26	0x3e03a78e	0.12856886
27	0x3e3729f5	0.17887099
28	0x3c61f77a	0.013791913
29	0x3d06dc4a	0.032924928
30	0xbe536ecd	-0.20647736
31	0xbaa15e90	-0.0012311507
32	0xbe32b4cb	-0.1745178
33	0xbe947e5c	-0.29002655
34	0xbc0b67dd	-0.00850865
35	0xbe1dfe95	-0.15429147
36	0xbd484eee	-0.0489034
37	0x3df2de79	0.118588395
38	0xbdc28b7f	-0.09499263
39	0x3ecab3ec	0.39590394
40	0xbd983620	-0.074321985
41	0xbd4a0a73	-0.04932637
42	0x3e512de8	0.20427668
43	0xbe9b5171	-0.30335572
44	0x3e205939	0.15659036
45	0xbc659004	-0.014011387
46	0xb9289390	-0.000160767
47	0xbebcec0c	-0.3689884
48	0xbda7e2a3	-0.081975244
49	0xbea39ac4	-0.31954014
50	0xbe604d95	-0.21904595
51	0xbe613e45	-0.2199641
52	0xbcf4c3be	-0.029878493
53	0xbdcbefbc	-0.09957835
54	0xbe3a1ff9	-0.18176259
55	0xbdb34a5b	-0.087544166
56	0x3df5efde	0.12008642
57	0xbdf3801d	-0.1188967
58	0xbb81876e	-0.003952912
59	0x3e15d893	0.14633398
60	0xbdce7f4b	-0.10082873
61	0xbcba205b	-0.022720506
62	0x3e322803	0.17398076
63	0x3e21cce0	0.1580081

mu.4.weight f4 [4, 64]
0	0xbd9a8b58	-0.07546109
1	0xbdf5cfa2	-0.120024934
2	0x3e8b8042	0.2724629
3	0xbd4a4c58	-0.049389213
4	0xbdc717cd	-0.097213365
5	0xbe537614	-0.20650512
6	0xbe5905bd	-0.21193595
7	0xbeb29792	-0.34881264
8	0x3d8e0382	0.06934263
9	0x3e4ae800	0.19815063
10	0x3d85d074	0.065339
11	0x3e9f93fb	0.31167588
12	0xbdcba90b	-0.09944352
13	0xbd97fcd4	-0.0742127
14	0xbe51ddd3	-0.20494775
15	0x3e1b1848	0.15145981
16	0xbd1e6232	-0.038667865
17	0xbdc5cb8b	-0.09657963
18	0x3de8ec5e	0.113732085
19	0x3ea5117c	0.32239902
20	0x3d0228e0	0.031777263
21	0x3d0b19f1	0.033960287
22	0xbe19867f	-0.14992712
23	0xbe0a8699	-0.13527907
24	0xbe4f1871	-0.20224167
25	0xbdf2b062	-0.118500486
26	0x3d5ebdbd	0.054380167
27	0x3dd7bf6b	0.10534557
28	0x3e485740	0.19564533
29	0xbd8b47d8	-0.068008125
30	0xbc9a7d6d	-0.018858636
31	0x3d7dbff1	0.061950628
32	0xbdc0ff16	-0.09423654
33	0x3e852dea	0.26011592
34	0x3e67b503	0.22627644
35	0x3d9790dd	0.07400677
36	0xbe4f98bb	-0.20273106
37	0xbe13312b	-0.14374225
38	0xbcda1610	-0.026621848
39	0x3f0a6de3	0.54073924
40	0xbdb08886	-0.0861979
41	0xbe1378b7	-0.14401518
42	0xbd3af119	-0.045640085
43	0x3e4c62a2	0.199595
44	0xbd3c84b8	-0.046025008
45	0x3ec7a20f	0.38990828
46	0x3e4c8db4	0.1997593
47	0x3d6bf3dc	0.05760561
48	0xbe1b5c91	-0.1517203
49	0xbb829edb	-0.003986222
50	0xbca07c32	-0.019590471
51	0x3cabf0f2	0.020988915
52	0x3e81abb8	0.25326324
53	0x3e791016	0.24322543
54	0xbd5a6de6	-0.053327464
55	0x3d0b3749	0.03398827
56	0x3bfbe918	0.007687699
57	0x3d2b8a20	0.041879773
58	0xbcd89d94	-0.026442327
59	0x3e9ae997	0.3025634
60	0x3ebb134f	0.3653817
61	0x3d0d051b	0.034428697
62	0xbdbb8f15	-0.0915815
63	0x3e190c74	0.14946157
64	0xbd9187c1	-0.07105971
65	0xbe100159	-0.14063014
66	0xbd488cc7	-0.04896238
67	0xbea4d9e8	-0.321975
68	0xbe952966	-0.29133147
69	0x3e579a72	0.2105501
70	0x3e3679c7	0.17819892
71	0xbd05667f	-0.03256845
72	0x3994a944	0.00028354872
73	0x3d8e7043	0.06955006
74	0x3e261707	0.16219722
75	0xbd609cbf	-0.054836985
76	0xbe45672f	-0.19277643
77	0xbdbaed53	-0.09127297
78	0x3ba2d4ea	0.004969229
79	0xbe170bbc	-0.1475057
80	0x3cd971c4	0.026543505
81	0x3dcf861e	0.10133003
82	0x3db06793	0.08613505
83	0x3d904cf8	0.070459306
84	0x3e82bdfb	0.2553557
85	0xbdd6cadc	-0.10487911
86	0x3dfee091	0.124451764
87	0xbd0af058	-0.033920616
88	0xbea01596	-0.3126647
89	0xbe130c92	-0.14360264
90	0x3c7b44ac	0.015336197
91	0x3ccf7fcc	0.025329493
92	0x3df5d2d0	0.120031
93	0xbcfd3483	-0.030908829
94	0xbe1c498a	-0.15262428
95	0xbc570fa7	-0.01312629
96	0x3e09e30b	0.13465516
97	0xbe39d9e9	-0.18149532
98	0xbe0fc1c6	-0.14038762
99	0x3e8c26c7	0.27373335
100	0x3c5bda7d	0.013418791
101	0x3e81130c	0.25209844
102	0xbdb9e8fc	-0.09077641
103	0xbd6f37d6	-0.05840286
104	0xbd74846d	-0.059696604
105	0xbd63a5f0	-0.055578172
106	0x3e40eeea	0.18841138
107	0xbe52280d	-0.2052309
108	0xbdfdfd94	-0.12401882
109	0xbd815ec2	-0.06316902
110	0x3d89b1df	0.06723379
111	0x3c5b6674	0.013391126
112	0x3e21028a	0.15723625
113	0x3d393989	0.045220885
114	0xbd3d4bff	-0.046215054
115	0x3d9f8b1b	0.07790204
116	0xbddd8d08	-0.10817915
117	0xbdefc79a	-0.11707993
118	0xbe766bfa	-0.24064627
119	0xbd020844	-0.031746164
120	0x3ca11851	0.019664915
121	0xbe577b18	-0.2104305
122	0xbd4ee836	-0.050514422
123	0xbe162241	-0.14661504
124	0xbe8140e8	-0.25244832
125	0xbe8d8829	-0.27642944
126	0x3dbf6781	0.09345914
127	0x3e677211	0.22602107
128	0x3df73b3a	0.120718434
129	0x3df39885	0.11894325
130	0xbcd657f8	-0.026164994
131	0xbe7347fb	-0.23757927
132	0xbdef0698	-0.116711795
133	0x3e1e6089	0.15466513
134	0xbe1258c7	-0.14291678
135	0xbc6b504b	-0.014362405
136	0xbe1ef084	-0.15521437
137	0xbd5dfe60	-0.05419767
138	0xbe298996	-0.16556391
139	0xbc9f7b6f	-0.019468037
140	0xbdb3388e	-0.08751021
141	0x3d0c7f2c	0.034300968
142	0x3ea1613b	0.31519493
143	0x3e812fa6	0.25231665
144	0xbe8ba297	-0.27272484
145	0xbd2ad90f	-0.04171091
146	0x3e405c24	0.18785149
147	0xbd9bdde5	-0.076106824
148	0xbdab53ed	-0.08365617
149	0x3e89251c	0.26786125
150	0xbdb39a33	-0.087696455
151	0x3e0888ce	0.13333437
152	0xbe8f3841	-0.27972606
153	0xbd3702b0	-0.044680297
154	0xbc4eb016	-0.012615224
155	0xbc246a68	-0.010035135
156	0x3db29848	0.087204516
157	0x3db890f0	0.0901202
158	0xbda940d9	-0.08264322
159	0xbcc1cbb1	-0.023656698
160	0x3dc04776	0.0938863
161	0xbce8dc56	-0.028425377
162	0x3d0e04be	0.03467249
163	0x3d7735c1	0.060353998
164	0xbd32e194	-0.04367216
165	0xbe6ed449	-0.23323168
166	0x3c176603	0.00924063
167	0xbddc25e4	-0.107494146
168	0xbd8228b5	-0.063554205
169	0x3b837747	0.0040120217
170	0x3e189d52	0.14903763
171	0x3e9771db	0.29579052
172	0xbd90d9bd	-0.0707278
173	0xbda2143e	-0.07914017
174	0x3cfce732	0.030871961
175	0x3e172842	0.14761451
176	0x3e8a302d	0.2698988
177	0x3ca34f31	0.019935222
178	0x3dbcb35c	0.092138976
179	0xbce0b5e3	-0.02743048
180	0x3d3d4ae8	0.046214014
181	0x3e8986c4	0.2686063
182	0x3dc80508	0.09766585
183	0xbdabc3c9	-0.083869524
184	0x3cd6ff10	0.02624467
185	0x3e89eef2	0.26940113
186	0xbdb80f9a	-0.08987351
187	0x3d899156	0.06717174
188	0xbe8b5b91	-0.27218297
189	0xbe1333c0	-0.1437521
190	0x3e2cfe69	0.16893925
191	0x3d9d8ee0	0.07693267
192	0x3df49932	0.11943282
193	0x3c6600c6	0.01403827
194	0x3e5d1536	0.21590123
195	0x3ec0406a	0.37549144
196	0x3da77dfc	0.081783265
197	0x3e55ae9b	0.20867388
198	0x3e57f8c4	0.2109099
199	0xbe80b4ae	-0.25137848
200	0x3e17ec16	0.14836153
201	0x3e05a884	0.13052565
202	0xbd0df61d	-0.03465854
203	0x3e197af4	0.14988309
204	0xbb82c6ed	-0.003990999
205	0x3c9501a6	0.018189263
206	0xbcae7214	-0.021294631
207	0x3d074096	0.03302058
208	0x3ce709bc	0.028202884
209	0x3a504452	0.0007944751
210	0xbd26848c	-0.04065375
211	0x3e3f20bd	0.18664832
212	0xbd4362d8	-0.047701687
213	0xbdc21046	-0.0947576
214	0x3d7ee2b8	0.062227935
215	0x3b3b5e74	0.0028590234
216	0xbdfbefc3	-0.1230159
217	0xbde74d18	-0.11294001
218	0x3cae0c23	0.021246022
219	0x3d262c81	0.040569786
220	0x3e68cc30	0.22734141
221	0xbe32faf4	-0.17478544
222	0xbdc0e790	-0.09419167
223	0x3e54a9d2	0.20767906
224	0x3da654db	0.08121654
225	0x3e10b3aa	0.14131036
226	0xbc81029b	-0.015748313
227	0x3d996355	0.07489649
228	0x3e982999	0.29719236
229	0xbe5fc02c	-0.21850652
230	0xbeacfebc	-0.33788097
231	0xbc84e1ed	-0.016221011
232	0x3ea24be1	0.31698516
233	0xbeaeecdd	-0.34165087
234	0xbc9e5a8e	-0.01933029
235	0xbe10ba13	-0.14133482
236	0x3dc04e99	0.09389991
237	0xbd2fd14e	-0.042924218
238	0xbe89f5f5	-0.26945463
239	0x3ea8a045	0.32934776
240	0xbb2df9d0	-0.0026546605
241	0x3e1547ba	0.14578143
242	0x3dea3d08	0.11437422
243	0x3e147cd7	0.14500748
244	0xbdffd4c3	-0.12491753
245	0xbd174cba	-0.036938407
246	0xbdc57e77	-0.09643262
247	0x3e17bc9a	0.1481804
248	0xbe3ccc78	-0.18437374
249	0x3d863d21	0.06554628
250	0x3e9b5712	0.30339867
251	0x3cd82de8	0.026389077
252	0xbe4b27b1	-0.1983936
253	0x3e18f9dc	0.14939064
254	0x3dc87b4f	0.09789144
255	0x3ea4c719	0.3218315

mu.4.bias f4 [4]
0	0xbdaa0a2c	-0.083027214
1	0xbe506d9b	-0.20354311
2	0xbdd35a96	-0.10320012
3	0x3d4ab77e	0.049491398
